TRAINED_CHATBOT/data.pth (torch, 14698 bytes, 6 tensors)

l1.weight f4 [8, 249]
00000000: 0780 ac3e 61e0 a13e 6c0d d4be 0dbe 3e3f
00000010: 654a 363f 63ea 7fbf e8f2 fabd 706a 353f
00000020: 4c1c 1a3e 6bfa 3c3d 51c5 353e 4a4f 183e
00000030: 7c6c dbbe 8d8c e9bd b400 893d 6d24 c93d
00000040: a3e1 17be 3a19 3ebe 59c6 8cbd a4ff ff3e
00000050: fbc3 233e 3879 4e3f 2ae7 7f3f aeef 0fbd
00000060: e585 ff3e a65d d6be 3f22 4cbc 7475 2f3e
00000070: 9c05 7c3e f450 d4be cc5f 143f c32e 403f
00000080: 3bce fb3e 8cff d0bd 5626 333d 48e3 bd3b
00000090: 4c4f 38bd b7d3 533d d8bc bebe 8106 88be
000000a0: 8fe8 73bd f956 883e cc5e cd3e 1815 fd3d
000000b0: 0636 9f3e ff75 883e 0cc1 94be 07d3 833e
000000c0: 1c6c 9e3e be90 e2bd 6ad0 9e3e 3279 f23d
000000d0: 630d 0b3e 0375 453e 9570 9e3f b2c4 d6be
000000e0: 7374 23be 7132 fcbe f180 e8bd 2096 df3d
000000f0: 6441 a53e e3f3 9dbd b85e 3a3d 4cc4 bcbd
00000100: fb80 093e 854f 293e 0289 693e 3d60 953e
00000110: 6ab5 8d3e d551 273f e3df a5bd 5859 6e3f
00000120: e2c4 2e3e d1e2 d83e 14b9 22be 8b3f 3dbd
00000130: 7a60 bfbd f127 e4be badf 203f e8b3 2e3e
00000140: c0d3 87bd 9d4c 613e a320 3c3e c74c 4b3e
00000150: f0b3 edbe c8de 283e 60a3 15be 2a5b a33e
00000160: 0ee5 243d 7c1a df3c fb5b 183e 934a 873e
00000170: 6b30 563d 951c abbe 162b 433d 5e5f 873e
00000180: 53e8 4c3f f894 5bbe e74b f6be 1bcc 87be
00000190: 6269 5abd 584f 883e 73b4 323f 686e a4bc
000001a0: 8fbe abbd de1b f0be 9cd4 48be f432 ff3e
000001b0: 153f 503d 2f3a f53d 9e8c 893e eaed 88be
000001c0: f934 203e 8b10 2dbe 6f15 993e 05a1 643e
000001d0: 69d9 323e 27c9 b13e dfba 133e 473c e73b
000001e0: 0829 033f f25a de3e 0424 8a3e 970b 263e
000001f0: 72e2 f63e a1f2 0abf b204 523e 8125 95be
00000200: b7c8 03be 2b8e 473e c131 2e3e a78f 8f3e
00000210: 88fc 70bd 91cf 06be e940 12be dc60 20bd
00000220: a190 2fbe 7358 77be 7d43 b0bd 13d4 f3bd
00000230: c41c 033f 2458 27be d8c1 4ebc 1334 6ebe
00000240: b99e 12be add1 5e3e 722e f53e 6a75 51bd
00000250: 14b3 543e e299 ad3e 6c3f 66bd 837b 323f
00000260: 0533 383f bbb8 1d3e f6cb 233f e6ad 233f
00000270: 2020 bc3e 786a 493e be78 acbe 3dd5 cabd
00000280: 787d 16be c2c2 b7be 1caf abbe 3fd3 a3be
00000290: 66c9 d7be 41c1 5cbe 7f21 b13d 388b e0bc
000002a0: 3542 37bd 57b2 43bd b5f6 263e 1071 413e
000002b0: 1d3b 8bbe baa8 fd3e 1599 2e3e f2de 273e
000002c0: eeda 503e 3130 223c 8583 8e3d d35f 04be
000002d0: 5967 7cbe 1add 9f3d 599a a23e 4f24 333d
000002e0: ca39 493e 2aa8 3d3e b976 d4bc ac45 9f3d
000002f0: a1e9 603e 1e3c 523f 2fb9 81be 7c5c c1bd
00000300: 8000 493e d15c 523e 9bb7 11bf b073 373d
00000310: ae75 883e 1310 2bbf 21d3 21bf 0eab dfbe
00000320: f16d fabe 4297 77bd 5e53 d8bd 7120 963e
00000330: 6ca9 c13d 8dc8 c6bd c36d a63d ce23 adbe
00000340: d541 5b3e d4bf 033d 5ffa fe3e 5ea4 a4bd
00000350: d2d6 ea3d 2b8a 17bf 6069 e03e 289a 223e
00000360: 3135 7e3d 6c43 0e3f 36d3 823d 1718 603f
00000370: 14b6 443e 06ac 2a3e 782a a53e 4971 93be
00000380: d918 5c3d 3090 03bf 1b3b be3e 1102 d03d
00000390: 30ae d3bd a248 31be d240 39be e7f9 edbe
000003a0: 8595 a53d 5e69 5d3e 7a41 c53d dff8 4d3e
000003b0: f3aa 043e 3dbd 0cbe aa3f d6bd b1c0 40be
000003c0: 0af4 853e 55b4 863e cb7c c1be 73f5 ebbe
000003d0: 1b8a f23d 7a4c 78be fb69 b7be 793c 753d
000003e0: 03e7 1f3e 098b 5dbe 5d76 823d fb5e aabe
000003f0: e91d c3be 256e fcbe f823 743f 0f0a babd
0.33691427 0.316165 -0.4141649 0.74508744 0.7120727 -0.9996702 -0.12253362 0.70865536
0.15049857 0.046137255 0.17751051 0.14873996 -0.42856205 -0.11403761 0.06689587 0.09821401
-0.14832167 -0.1856431 -0.06873769 0.49999726 0.1599273 0.80653715 0.99962103 -0.035140686
0.4990684 -0.41868323 -0.012459337 0.17134649 0.24611515 -0.41468012 0.57958674 0.7507135
0.4918078 -0.10204992 0.043737732 0.0057949163 -0.0449975 0.05171558 -0.3725345 -0.26567462
-0.059547957 0.26628855 0.40111387 0.12357539 0.31095904 0.26652524 -0.29053533 0.2574694
0.30941856 -0.11062764 0.31018382 0.118395224 0.13579325 0.19282918 1.2378107 -0.41946942
-0.1596239 -0.49257234 -0.113527186 0.10917306 0.32276452 -0.07712533 0.045500487 -0.09217128
0.13428108 0.1653424 0.2280617 0.29174986 0.2767747 0.6535924 -0.08099344 0.9310508
0.17067292 0.42360547 -0.15890914 -0.046203177 -0.09344573 -0.44561723 0.6284138 0.17060816
-0.06632185 0.22001882 0.18371825 0.19853507 -0.46426344 0.16491234 -0.14613104 0.3190549
0.040257506 0.027234308 0.14878838 0.26424083 0.05229227 -0.33420244 0.04764851 0.26439947
0.80042 -0.21443546 -0.48104784 -0.26522908 -0.053323157 0.26623034 0.69806594 -0.020072177
-0.083859555 -0.4689626 -0.19612354 0.49843562 0.05084141 0.11973988 0.26865095 -0.26744014
0.15645207 -0.16900842 0.29899165 0.22327049 0.17465748 0.3472378 0.14426754 0.007056746
0.51234484 0.4342876 0.26980603 0.16215359 0.4821964 -0.5427647 0.20509604 -0.29130176
-0.12869535 0.19487827 0.17011167 0.28039286 -0.058834583 -0.13165118 -0.14282574 -0.039154872
-0.17145015 -0.24154834 -0.08606622 -0.11905684 0.5121577 -0.16342217 -0.012619458 -0.23262052
-0.1431836 0.21759672 0.47886997 -0.051137365 0.20771438 0.33906466 -0.056212828 0.69719714
0.7195285 0.154025 0.63983095 0.6393722 0.3674326 0.19669521 -0.3368587 -0.09903953
-0.146963 -0.35890776 -0.33532035 -0.31997105 -0.42145842 -0.21558096 0.08648967 -0.027410135
-0.044740874 -0.0477775 0.16305049 0.18890786 -0.27193537 0.4954279 0.17050584 0.1639364
0.20396015 0.009899185 0.06958679 -0.12927179 -0.24648799 0.07805844 0.31758383 0.0437358
0.19650951 0.18521181 -0.025935518 0.07776961 0.21964122 0.8212298 -0.25336596 -0.09441468
0.19629097 0.20543219 -0.56920785 0.044788063 0.26652282 -0.668214 -0.6321278 -0.43685192
-0.48912004 -0.060446985 -0.10562776 0.29321626 0.09456143 -0.09706221 0.08126404 -0.3381638
0.21411832 0.032165363 0.49800393 -0.08039163 0.11466755 -0.591952 0.43830395 0.15879118
0.062062446 0.5557163 0.063879415 0.8753676 0.19210082 0.16667184 0.32258964 -0.28797367
0.053734634 -0.5139189 0.3715447 0.10156644 -0.10335958 -0.17312863 -0.18091133 -0.46479723
0.08085159 0.21622226 0.09631629 0.20114468 0.12955837 -0.13744064 -0.10461362 -0.18823506
0.2616275 0.26309457 -0.37790522 -0.460857 0.11842748 -0.24247923 -0.35823044 0.059872124
0.15615468 -0.21635069 0.06370232 -0.3327559 -0.38108757 -0.49302784 0.95367384 -0.0908395

l1.bias f4 [8]
00000000: 7fa7 763f ab8a b73e 447d 243f 13b9 e83e
00000010: 5c73 093f 44b0 9d3e 5715 833e 36e0 103f
0.9634933 0.35847983 0.6425364 0.454537 0.5369165 0.30798542 0.25602219 0.5659212

l2.weight f4 [8, 8]
00000000: c1a3 12bf 08b8 e73f a07e c23f 5323 0f40
00000010: 9d35 e13c 712b a23f 88cb 33bd a04e 24bd
00000020: 834c dc3f b71a d4be 6972 b73f 3e78 54bf
00000030: b176 a43f 92ad 543e 9eea 26bf e284 09c0
00000040: 8c26 ff3f 4150 2fbf c500 503e c274 993d
00000050: 0d98 15bf 108c e53f 6341 cc3f 7090 d33f
00000060: 1ee7 dcbf b00e 0440 2201 943f 5ace 953f
00000070: 063f e1be 42f6 41bf a080 ab3e 1e3b a83f
00000080: dd62 b13d 910f bc3e 82a9 0fbe fa59 e13f
00000090: 5eb9 ce3f a36a 1b3e 1ae5 d9bd 6f04 0140
000000a0: 34fa f43e ac70 fb3e 5486 363f ee69 4b3f
000000b0: 1408 51bf c825 cd3f ae99 ac3f 74bf 82bf
000000c0: 2d44 053f 5a82 3c3d efe3 20bf 94f0 b73f
000000d0: 9dc8 0340 e1cb 4bbf 30e4 0dbf 4322 1a40
000000e0: 78d2 25be df7d 0ebe cbf1 aabe 953c a03e
000000f0: b028 aabe 100f 813c f7c6 6dbe 60a6 353c
-0.5728112 1.8103037 1.5194893 2.236531 0.027491385 1.2669507 -0.043895274 -0.040114045
1.721085 -0.41426632 1.433179 -0.82995975 1.2848722 0.20769337 -0.6520175 -2.1487355
1.9933639 -0.6848183 0.20312794 0.07492973 -0.58435136 1.7933369 1.5957454 1.6528454
-1.7258031 2.0633965 1.1562846 1.1703598 -0.43993396 -0.75766385 0.3349657 1.3143041
0.08661435 0.36730626 -0.14029506 1.7605584 1.615032 0.15177397 -0.10639401 2.0158956
0.4784714 0.491094 0.7129872 0.7945851 -0.8165295 1.6027155 1.3484399 -1.0214677
0.52057153 0.04602275 -0.628478 1.4370294 2.0591195 -0.7960797 -0.5542631 2.4083412
-0.16193569 -0.13915204 -0.33387598 0.3129622 -0.33234167 0.015754253 -0.2322043 0.01108703

l2.bias f4 [8]
00000000: 613f 3bbf 7cc0 b73f dd52 b8bb bbae 2d3d
00000010: 0965 ebbe b749 6ebe 9c92 c73e f842 abbe
-0.73143584 1.4355617 -0.0056251124 0.042402964 -0.4597552 -0.23270307 0.38979042 -0.3344953

l3.weight f4 [9, 8]
00000000: 3785 f2bf 027a 8f3e eb7f 953f 8373 98bf
00000010: a3c4 20c0 c6fd f83e ddcf 9ebf caaa 333e
00000020: 98b7 383f de55 d9be 2844 f9bd 8028 97bf
00000030: 19ba 0dbd 4400 a83d b3c5 8bbf 618a 883e
00000040: ad05 09c0 acea b2bf b71b 1b3f 6065 f2be
00000050: 88e0 c13e 62ef a7bf 6f8e 473f 50ab 7b3d
00000060: 5790 07c0 8ab6 a63f aaf6 0cbf a70b 87bf
00000070: 09cb 70bf 14a3 29bf 946b d73e c32d a93e
00000080: 18db 8abf 36ad b9be 7676 29c0 2a11 59bf
00000090: 77ca 5c3f 4949 83be e24b 873f 97ff 8f3e
000000a0: bc81 5d3f f260 adbf aadf 05bf 43d9 213f
000000b0: 6f45 81bf ac1f 213f 5c11 06c0 b9af 77be
000000c0: ce3a a7bd 7194 00c0 d76a 10c0 440b 223f
000000d0: 8b08 053f ab5c 8abf 643c 1c3f 4a6b 3a3e
000000e0: 0a07 b23e b1d3 973e f488 23c0 a28d 583f
000000f0: 0897 3bbe 16ab cabe 7f25 20bf dac4 593e
00000100: 13dd 503e 5387 f6bf f9c8 763d 2823 353e
00000110: 2881 723e 666c be3b 3ff5 3bbe 2208 053e
-1.8946904 0.28022772 1.1679662 -1.1910251 -2.5120018 0.48631114 -1.2407185 0.1754562
0.7215514 -0.42448324 -0.12171203 -1.1809235 -0.034601305 0.08203176 -1.0919708 0.26668075
-2.1409714 -1.3977866 0.60589164 -0.47342968 0.37866616 -1.3119929 0.7795171 0.061442673
-2.1181848 1.3024457 -0.5506388 -1.0550431 -0.9405981 -0.6626446 0.42074263 0.33042726
-1.0848112 -0.36264962 -2.6478553 -0.84791815 0.86246437 -0.2564185 1.0570033 0.28124687
0.86526084 -1.354521 -0.5229441 0.6322214 -1.0099314 0.6293895 -2.0948095 -0.24188127
-0.08165513 -2.0090601 -2.256521 0.6329844 0.5196616 -1.080953 0.6102965 0.1820499
0.34770995 0.29653695 -2.555234 0.84591115 -0.18319333 -0.39583653 -0.62557214 0.21266499
0.20396833 -1.9260048 0.060250256 0.17689192 0.23682082 0.005811262 -0.18355273 0.12991384

l3.bias f4 [9]
00000000: 314d b53e bb5f 97bf 248b 51be 4869 de3e
00000010: 73df 503e 6bf6 2fbd a7d0 93be 0507 303e
00000020: 0ef0 40bf
0.35410455 -1.182609 -0.20463234 0.43439698 0.20397739 -0.042959612 -0.28870127 0.17190178
-0.75366294
